…
","iopub.status.idle":"2025-07-18T07:10:33.918207Z","shell.execute_reply.started":"2025-07-18T07:10:32.664833Z","shell.execute_reply":"2025-07-18T07:10:33.917379Z"},"collapsed":true,"jupyter":{"outputs_hidden":true}},"outputs":[{"output_type":"display_data","data":{"text/plain":"  0%|          | 0.00/107M [00:00<?, ?B/s]","application/vnd.jupyter.widget-view+json":{"version_major":2,"version_minor":0,"model_id":"df7d717505df4faa813f56a0553bcffe"}},"metadata":{}},{"execution_count":19,"output_type":"execute_result","data":{"text/plain":"InceptionResnetV1(\n  (conv2d_1a): BasicConv2d(\n    (conv): Conv2d(3, 32, kernel_size=(3, 3), stride=(2, 2), bias=False)\n    (bn): BatchNorm2d(32, eps=0.001, momentum=0.1, affine=True, track_running_stats=True)\n    (relu): ReLU()\n  )\n  (conv2d_2a): BasicConv2d(\n    (conv): Conv2d(32, 32, kernel_size=(3, 3), stride=(1, 1), bias=False)\n    (bn): BatchNorm2d(32, eps=0.001, momentum=0.1, affine=True, track_running_stats=True)\n    (relu): ReLU()\n  )\n  (conv2d_2b): BasicConv2d(\n    (conv): Conv2d(32, 64, kernel_size=(3, 3), stride=(1, 1), padding=(1, 1), bias=False)\n    (bn): BatchNorm2d(64, eps=0.001, momentum=0.1, affine=True, track_running_stats=True)\n    (relu): ReLU()\n  )\n  (maxpool_3a): MaxPool2d(kernel_size=3, stride=2, padding=0, dilation=1, ceil_mode=False)\n  (conv2d_3b): BasicConv2d(\n    (conv): Conv2d(64, 80, kernel_size=(1, 1), stride=(1, 1), bias=False)\n    (bn): BatchNorm2d(80, eps=0.001, momentum=0.1, affine=True, track_running_stats=True)\n    (relu): ReLU()\n  )\n  (conv2d_4a): BasicConv2d(\n    (conv): Conv2d(80, 192, kernel_size=(3, 3), stride=(1, 1), bias=False)\n    (bn): BatchNorm2d(192, eps=0.001, momentum=0.1, affine=True, track_running_stats=True)\n    (relu): ReLU()\n  )\n  (conv2d_4b): BasicConv2d(\n    (conv): Conv2d(192, 256, kernel_size=(3, 3), stride=(2, 2), bias=False)\n    (bn): BatchNorm2d(256, eps=0.001, momentum=0.1, affine=True, track_running_stats=True)\n    (relu): ReLU()\n  )\n  (repeat_1): Sequential(\n    (0): Block35(\n      (branch0): BasicConv2d(\n        (conv): Conv2d(256, 32, kernel_size=(1, 1), stride=(1, 1), bias=False)\n        (bn): BatchNorm2d(32, eps=0.001, momentum=0.1, affine=True, track_running_stats=True)\n        (relu): ReLU()\n      )\n      (branch1): Sequential(\n        (0): BasicConv2d(\n          (conv): Conv2d(256, 32, kernel_size=(1, 1), stride=(1, 1), bias=False)\n          (bn): BatchNorm2d(32, eps=0.001, momentum=0.1, affine=True, track_running_stats=True)\n          (relu): ReLU()\n        )\n        (1): BasicConv2d(\n          (conv): Conv2d(32, 32, kernel_size=(3, 3), stride=(1, 1), padding=(1, 1), bias=False)\n          (bn): BatchNorm2d(32, eps=0.001, momentum=0.1, affine=True, track_running_stats=True)\n          (relu): ReLU()\n        )\n      )\n      (branch2): Sequential(\n        (0): BasicConv2d(\n          (conv): Conv2d(256, 32, kernel_size=(1, 1), stride=(1, 1), bias=False)\n          (bn): BatchNorm2d(32, eps=0.001, momentum=0.1, affine=True, track_running_stats=True)\n          (relu): ReLU()\n        )\n        (1): BasicConv2d(\n          (conv): Conv2d(32, 32, kernel_size=(3, 3), stride=(1, 1), padding=(1, 1), bias=False)\n          (bn): BatchNorm2d(32, eps=0.001, momentum=0.1, affine=True, track_running_stats=True)\n          (relu): ReLU()\n        )\n        (2): BasicConv2d(\n          (conv): Conv2d(32, 32, kernel_size=(3, 3), stride=(1, 1), padding=(1, 1), bias=False)\n          (bn): BatchNorm2d(32, eps=0.001, momentum=0.1, affine=True, track_running_stats=True)\n          (relu): ReLU()\n        )\n      )\n      (conv2d): Conv2d(96, 256, kernel_size=(1, 1), stride=(1, 1))\n      (relu): ReLU()\n    )\n    (1): Block35(\n      (branch0): BasicConv2d(\n        (conv): Conv2d(256, 32, kernel_size=(1, 1), stride=(1, 1), bias=False)\n        (bn): BatchNorm2d(32, eps=0.001, momentum=0.1, affine=True, track_running_stats=True)\n        (relu): ReLU()\n      )\n      (branch1): Sequential(\n        (0): BasicConv2d(\n          (conv): Conv2d(256, 32, kernel_size=(1, 1), stride=(1, 1), bias=False)\n          (bn): BatchNorm2d(32, eps=0.001, momentum=0.1, affine=True, track_running_stats=True)\n          (relu): ReLU()\n        )\n        (1): BasicConv2d(\n          (conv): Conv2d(32, 32, kernel_size=(3, 3), stride=(1, 1), padding=(1, 1), bias=False)\n          (bn): BatchNorm2d(32, eps=0.001, momentum=0.1, affine=True, track_running_stats=True)\n          (relu): ReLU()\n        )\n      )\n      (branch2): Sequential(\n        (0): BasicConv2d(\n          (conv): Conv2d(256, 32, kernel_size=(1, 1), stride=(1, 1), bias=False)\n          (bn): BatchNorm2d(32, eps=0.001, momentum=0.1, affine=True, track_running_stats=True)\n          (relu): ReLU()\n        )\n        (1): BasicConv2d(\n          (conv): Conv2d(32, 32, kernel_size=(3, 3), stride=(1, 1), padding=(1, 1), bias=False)\n          (bn): BatchNorm2d(32, eps=0.001, momentum=0.1, affine=True, track_running_stats=True)\n          (relu): ReLU()\n        )\n        (2): BasicConv2d(\n          (conv): Conv2d(32, 32, kernel_size=(3, 3), stride=(1, 1), padding=(1, 1), bias=False)\n          (bn): BatchNorm2d(32, eps=0.001, momentum=0.1, affine=True, track_running_stats=True)\n          (relu): ReLU()\n        )\n      )\n      (conv2d): Conv2d(96, 256, kernel_size=(1, 1), stride=(1, 1))\n      (relu): ReLU()\n    )\n    (2): Block35(\n      (branch0): BasicConv2d(\n        (conv): Conv2d(256, 32, kernel_size=(1, 1), stride=(1, 1), bias=False)\n        (bn): BatchNorm2d(32, eps=0.001, momentum=0.1, affine=True, track_running_stats=True)\n        (relu): ReLU()\n      )\n      (branch1): Sequential(\n        (0): BasicConv2d(\n          (conv): Conv2d(256, 32, kernel_size=(1, 1), stride=(1, 1), bias=False)\n          (bn): BatchNorm2d(32, eps=0.001, momentum=0.1, affine=True, track_running_stats=True)\n          (relu): ReLU()\n        )\n        (1): BasicConv2d(\n          (conv): Conv2d(32, 32, kernel_size=(3, 3), stride=(1, 1), padding=(1, 1), bias=False)\n          (bn): BatchNorm2d(32, eps=0.001, momentum=0.1, affine=True, track_running_stats=True)\n          (relu): ReLU()\n        )\n      )\n      (branch2): Sequential(\n        (0): BasicConv2d(\n          (conv): Conv2d(256, 32, kernel_size=(1, 1), stride=(1, 1), bias=False)\n          (bn): BatchNorm2d(32, eps=0.001, momentum=0.1, affine=True, track_running_stats=True)\n          (relu): ReLU()\n        )\n        (1): BasicConv2d(\n          (conv): Conv2d(32, 32, kernel_size=(3, 3), stride=(1, 1), padding=(1, 1), bias=False)\n          (bn): BatchNorm2d(32, eps=0.001, momentum=0.1, affine=True, track_running_stats=True)\n          (relu): ReLU()\n        )\n        (2): BasicConv2d(\n          (conv): Conv2d(32, 32, kernel_size=(3, 3), stride=(1, 1), padding=(1, 1), bias=False)\n          (bn): BatchNorm2d(32, eps=0.001, momentum=0.1, affine=True, track_running_stats=True)\n          (relu): ReLU()\n        )\n      )\n      (conv2d): Conv2d(96, 256, kernel_size=(1, 1), stride=(1, 1))\n      (relu): ReLU()\n    )\n    (3): Block35(\n      (branch0): BasicConv2d(\n        (conv): Conv2d(256, 32, kernel_size=(1, 1), stride=(1, 1), bias=False)\n        (bn): BatchNorm2d(32, eps=0.001, momentum=0.1, affine=True, track_running_stats=True)\n        (relu): ReLU()\n      )\n      (branch1): Sequential(\n        (0): BasicConv2d(\n          (conv): Conv2d(256, 32, kernel_size=(1, 1), stride=(1, 1), bias=False)\n          (bn): BatchNorm2d(32, eps=0.001, momentum=0.1, affine=True, track_running_stats=True)\n          (relu): ReLU()\n        )\n        (1): BasicConv2d(\n          (conv): Conv2d(32, 32, kernel_size=(3, 3), stride=(1, 1), padding=(1, 1), bias=False)\n          (bn): BatchNorm2d(32, eps=0.001, momentum=0.1, affine=True, track_running_stats=True)\n          (relu): ReLU()\n        )\n      )\n      (branch2): Sequential(\n        (0): BasicConv2d(\n          (conv): Conv2d(256, 32, kernel_size=(1, 1), stride=(1, 1), bias=False)\n          (bn): BatchNorm2d(32, eps=0.001, momentum=0.1, affine=True, track_running_stats=True)\n          (relu): ReLU()\n        )\n        (1): BasicConv2d(\n          (conv): Conv2d(32, 32, kernel_size=(3, 3), stride=(1, 1), padding=(1, 1), bias=False)\n          (bn): BatchNorm2d(32, eps=0.001, momentum=0.1, affine=True, track_running_stats=True)\n          (relu): ReLU()\n        )\n        (2): BasicConv2d(\n          (conv): Conv2d(32, 32, kernel_size=(3, 3), stride=(1, 1), padding=(1, 1), bias=False)\n          (bn): BatchNorm2d(32, eps=0.001, momentum=0.1, affine=True, track_running_stats=True)\n          (relu): ReLU()\n        )\n      )\n      (conv2d): Conv2d(96, 256, kernel_size=(1, 1), stride=(1, 1))\n      (relu): ReLU()\n    )\n    (4): Block35(\n      (branch0): BasicConv2d(\n        (conv): Conv2d(256, 32, kernel_size=(1, 1), stride=(1, 1), bias=False)\n        (bn): BatchNorm2d(32, eps=0.001, momentum=0.1, affine=True, track_running_stats=True)\n        (relu): ReLU()\n      )\n      (branch1): Sequential(\n        (0): BasicConv2d(\n          (conv): Conv2d(256, 32, kernel_size=(1, 1), stride=(1, 1), bias=False)\n          (bn): BatchNorm2d(32, eps=0.001, momentum=0.1, affine=True, track_running_stats=True)\n          (relu): ReLU()\n        )\n        (1): BasicConv2d(\n          (conv): Conv2d(32, 32, kernel_size=(3, 3), stride=(1, 1), padding=(1, 1), bias=False)\n          (bn): BatchNorm2d(32, eps=0.001, momentum=0.1, affine=True, track_running_stats=True)\n          (relu): ReLU()\n        )\n      )\n      (branch2): Sequential(\n        (0): BasicConv2d(\n          (conv): Conv2d(256, 32, kernel_size=(1, 1), stride=(1, 1), bias=False)\n          (bn): BatchNorm2d(32, eps=0.001, momentum=0.1, affine=True, track_running_stats=True)\n          (relu): ReLU()\n        )\n        (1): BasicConv2d(\n          (conv): Conv2d(32, 32, kernel_size=(3, 3), stride=(1, 1), padding=(1, 1), bias=False)\n          (bn): BatchNorm2d(32, eps=0.001, momentum=0.1, affine=True, track_running_stats=True)\n          (relu): ReLU()\n        )\n        (2): BasicConv2d(\n          (conv): Conv2d(32, 32, kernel_size=(3, 3), stride=(1, 1), padding=(1, 1), bias=False)\n          (bn): BatchNorm2d(32, eps=0.001, momentum=0.1, affine=True, track_running_stats=True)\n          (relu): ReLU()\n        )\n      )\n      (conv2d): Conv2d(96, 256, kernel_size=(1, 1), stride=(1, 1))\n      (relu): ReLU()\n    )\n  )\n  (mixed_6a): Mixed_6a(\n    (branch0): BasicConv2d(\n      (conv): Conv2d(256, 384, kernel_size=(3, 3), stride=(2, 2), bias=False)\n      (bn): BatchNorm2d(384, eps=0.001, momentum=0.1, affine=True, track_running_stats=True)\n      (relu): ReLU()\n    )\n    (branch1): Sequential(\n      (0): BasicConv2d(\n        (conv): Conv2d(256, 192, kernel_size=(1, 1), stride=(1, 1), bias=False)\n        (bn): BatchNorm2d(192, eps=0.001, momentum=0.1, affine=True, track_running_stats=True)\n        (relu): ReLU()\n      )\n      (1): BasicConv2d(\n        (conv): Conv2d(192, 192, kernel_size=(3, 3), stride=(1, 1), padding=(1, 1), bias=False)\n        (bn): BatchNorm2d(192, eps=0.001, momentum=0.1, affine=True, track_running_stats=True)\n        (relu): ReLU()\n      )\n      (2): BasicConv2d(\n        (conv): Conv2d(192, 256, kernel_size=(3, 3), stride=(2, 2), bias=False)\n        (bn): BatchNorm2d(256, eps=0.001, momentum=0.1, affine=True, track_running_stats=True)\n        (relu): ReLU()\n      )\n    )\n    (branch2): MaxPool2d(kernel_size=3, stride=2, padding=0, dilation=1, ceil_mode=False)\n  )\n  (repeat_2): Sequential(\n    (0): Block17(\n      (branch0): BasicConv2d(\n        (conv): Conv2d(896, 128, kernel_size=(1, 1), stride=(1, 1), bias=False)\n        (bn): BatchNorm2d(128, eps=0.001, momentum=0.1, affine=True, track_running_stats=True)\n        (relu): ReLU()\n      )\n      (branch1): Sequential(\n        (0): BasicConv2d(\n          (conv): Conv2d(896, 128, kernel_size=(1, 1), stride=(1, 1), bias=False)\n          (bn): BatchNorm2d(128, eps=0.001, momentum=0.1, affine=True, track_running_stats=True)\n          (relu): ReLU()\n        )\n        (1): BasicConv2d(\n          (conv): Conv2d(128, 128, kernel_size=(1, 7), stride=(1, 1), padding=(0, 3), bias=False)\n          (bn): BatchNorm2d(128, eps=0.001, momentum=0.1, affine=True, track_running_stats=True)\n          (relu): ReLU()\n        )\n        (2): BasicConv2d(\n          (conv): Conv2d(128, 128, kernel_size=(7, 1), stride=(1, 1), padding=(3, 0), bias=False)\n          (bn): BatchNorm2d(128, eps=0.001, momentum=0.1, affine=True, track_running_stats=True)\n          (relu): ReLU()\n        )\n      )\n      (conv2d): Conv2d(256, 896, kernel_size=(1, 1), stride=(1, 1))\n      (relu): ReLU()\n    )\n    (1): Block17(\n      (branch0): BasicConv2d(\n        (conv): Conv2d(896, 128, kernel_size=(1, 1), stride=(1, 1), bias=False)\n        (bn): BatchNorm2d(128, eps=0.001, momentum=0.1, affine=True, track_running_stats=True)\n        (relu): ReLU()\n      )\n      (branch1): Sequential(\n        (0): BasicConv2d(\n          (conv): Conv2d(896, 128, kernel_size=(1, 1), stride=(1, 1), bias=False)\n          (bn): BatchNorm2d(128, eps=0.001, momentum=0.1, affine=True, track_running_stats=True)\n          (relu): ReLU()\n        )\n        (1): BasicConv2d(\n          (conv): Conv2d(128, 128, kernel_size=(1, 7), stride=(1, 1), padding=(0, 3), bias=False)\n          (bn): BatchNorm2d(128, eps=0.001, momentum=0.1, affine=True, track_running_stats=True)\n          (relu): ReLU()\n        )\n        (2): BasicConv2d(\n          (conv): Conv2d(128, 128, kernel_size=(7, 1), stride=(1, 1), padding=(3, 0), bias=False)\n          (bn): BatchNorm2d(128, eps=0.001, momentum=0.1, affine=True, track_running_stats=True)\n          (relu): ReLU()\n        )\n      )\n      (conv2d): Conv2d(256, 896, kernel_size=(1, 1), stride=(1, 1))\n      (relu): ReLU()\n    )\n    (2): Block17(\n      (branch0): BasicConv2d(\n        (conv): Conv2d(896, 128, kernel_size=(1, 1), stride=(1, 1), bias=False)\n        (bn): BatchNorm2d(128, eps=0.001, momentum=0.1, affine=True, track_running_stats=True)\n        (relu): ReLU()\n      )\n      (branch1): Sequential(\n        (0): BasicConv2d(\n          (conv): Conv2d(896, 128, kernel_size=(1, 1), stride=(1, 1), bias=False)\n          (bn): BatchNorm2d(128, eps=0.001, momentum=0.1, affine=True, track_running_stats=True)\n          (relu): ReLU()\n        )\n        (1): BasicConv2d(\n          (conv): Conv2d(128, 128, kernel_size=(1, 7), stride=(1, 1), padding=(0, 3), bias=False)\n          (bn): BatchNorm2d(128, eps=0.001, momentum=0.1, affine=True, track_running_stats=True)\n          (relu): ReLU()\n        )\n        (2): BasicConv2d(\n          (conv): Conv2d(128, 128, kernel_size=(7, 1), stride=(1, 1), padding=(3, 0), bias=False)\n          (bn): BatchNorm2d(128, eps=0.001, momentum=0.1, affine=True, track_running_stats=True)\n          (relu): ReLU()\n        )\n      )\n      (conv2d): Conv2d(256, 896, kernel_size=(1, 1), stride=(1, 1))\n      (relu): ReLU()\n    )\n    (3): Block17(\n      (branch0): BasicConv2d(\n        (conv): Conv2d(896, 128, kernel_size=(1, 1), stride=(1, 1), bias=False)\n        (bn): BatchNorm2d(128, eps=0.001, momentum=0.1, affine=True, track_running_stats=True)\n        (relu): ReLU()\n      )\n      (branch1): Sequential(\n        (0): BasicConv2d(\n          (conv): Conv2d(896, 128, kernel_size=(1, 1), stride=(1, 1), bias=False)\n          (bn): BatchNorm2d(128, eps=0.001, momentum=0.1, affine=True, track_running_stats=True)\n          (relu): ReLU()\n        )\n        (1): BasicConv2d(\n          (conv): Conv2d(128, 128, kernel_size=(1, 7), stride=(1, 1), padding=(0, 3), bias=False)\n          (bn): BatchNorm2d(128, eps=0.001, momentum=0.1, affine=True, track_running_stats=True)\n          (relu): ReLU()\n        )\n        (2): BasicConv2d(\n          (conv): Conv2d(128, 128, kernel_size=(7, 1), stride=(1, 1), padding=(3, 0), bias=False)\n          (bn): BatchNorm2d(128, eps=0.001, momentum=0.1, affine=True, track_running_stats=True)\n          (relu): ReLU()\n        )\n      )\n      (conv2d): Conv2d(256, 896, kernel_size=(1, 1), stride=(1, 1))\n      (relu): ReLU()\n    )\n    (4): Block17(\n      (branch0): BasicConv2d(\n        (conv): Conv2d(896, 128, kernel_size=(1, 1), stride=(1, 1), bias=False)\n        (bn): BatchNorm2d(128, eps=0.001, momentum=0.1, affine=True, track_running_stats=True)\n        (relu): ReLU()\n      )\n      (branch1): Sequential(\n        (0): BasicConv2d(\n          (conv): Conv2d(896, 128, kernel_size=(1, 1), stride=(1, 1), bias=False)\n          (bn): BatchNorm2d(128, eps=0.001, momentum=0.1, affine=True, track_running_stats=True)\n          (relu): ReLU()\n        )\n        (1): BasicConv2d(\n          (conv): Conv2d(128, 128, kernel_size=(1, 7), stride=(1, 1), padding=(0, 3), bias=False)\n          (bn): BatchNorm2d(128, eps=0.001, momentum=0.1, affine=True, track_running_stats=True)\n          (relu): ReLU()\n        )\n        (2): BasicConv2d(\n          (conv): Conv2d(128, 128, kernel_size=(7, 1), stride=(1, 1), padding=(3, 0), bias=False)\n          (bn): BatchNorm2d(128, eps=0.001, momentum=0.1, affine=True, track_running_stats=True)\n          (relu): ReLU()\n        )\n      )\n      (conv2d): Conv2d(256, 896, kernel_size=(1, 1), stride=(1, 1))\n      (relu): ReLU()\n    )\n    (5): Block17(\n      (branch0): BasicConv2d(\n        (conv): Conv2d(896, 128, kernel_size=(1, 1), stride=(1, 1), bias=False)\n        (bn): BatchNorm2d(128, eps=0.001, momentum=0.1, affine=True, track_running_stats=True)\n        (relu): ReLU()\n      )\n      (branch1): Sequential(\n        (0): BasicConv2d(\n          (conv): Conv2d(896, 128, kernel_size=(1, 1), stride=(1, 1), bias=False)\n          (bn): BatchNorm2d(128, eps=0.001, momentum=0.1, affine=True, track_running_stats=True)\n          (relu): ReLU()\n        )\n        (1): BasicConv2d(\n          (conv): Conv2d(128, 128, kernel_size=(1, 7), stride=(1, 1), padding=(0, 3), bias=False)\n          (bn): BatchNorm2d(128, eps=0.001, momentum=0.1, affine=True, track_running_stats=True)\n          (relu): ReLU()\n        )\n        (2): BasicConv2d(\n          (conv): Conv2d(128, 128, kernel_size=(7, 1), stride=(1, 1), padding=(3, 0), bias=False)\n          (bn): BatchNorm2d(128, eps=0.001, momentum=0.1, affine=True, track_running_stats=True)\n          (relu): ReLU()\n        )\n      )\n      (conv2d): Conv2d(256, 896, kernel_size=(1, 1), stride=(1, 1))\n      (relu): ReLU()\n    )\n    (6): Block17(\n      (branch0): BasicConv2d(\n        (conv): Conv2d(896, 128, kernel_size=(1, 1), stride=(1, 1), bias=False)\n        (bn): BatchNorm2d(128, eps=0.001, momentum=0.1, affine=True, track_running_stats=True)\n        (relu): ReLU()\n      )\n      (branch1): Sequential(\n        (0): BasicConv2d(\n          (conv): Conv2d(896, 128, kernel_size=(1, 1), stride=(1, 1), bias=False)\n          (bn): BatchNorm2d(128, eps=0.001, momentum=0.1, affine=True, track_running_stats=True)\n          (relu): ReLU()\n        )\n        (1): BasicConv2d(\n          (conv): Conv2d(128, 128, kernel_size=(1, 7), stride=(1, 1), padding=(0, 3), bias=False)\n          (bn): BatchNorm2d(128, eps=0.001, momentum=0.1, affine=True, track_running_stats=True)\n          (relu): ReLU()\n        )\n        (2): BasicConv2d(\n          (conv): Conv2d(128, 128, kernel_size=(7, 1), stride=(1, 1), padding=(3, 0), bias=False)\n          (bn): BatchNorm2d(128, eps=0.001, momentum=0.1, affine=True, track_running_stats=True)\n          (relu): ReLU()\n        )\n      )\n      (conv2d): Conv2d(256, 896, kernel_size=(1, 1), stride=(1, 1))\n      (relu): ReLU()\n    )\n    (7): Block17(\n      (branch0): BasicConv2d(\n        (conv): Conv2d(896, 128, kernel_size=(1, 1), stride=(1, 1), bias=False)\n        (bn): BatchNorm2d(128, eps=0.001, momentum=0.1, affine=True, track_running_stats=True)\n        (relu): ReLU()\n      )\n      (branch1): Sequential(\n        (0): BasicConv2d(\n          (conv): Conv2d(896, 128, kernel_size=(1, 1), stride=(1, 1), bias=False)\n          (bn): BatchNorm2d(128, eps=0.001, momentum=0.1, affine=True, track_running_stats=True)\n          (relu): ReLU()\n        )\n        (1): BasicConv2d(\n          (conv): Conv2d(128, 128, kernel_size=(1, 7), stride=(1, 1), padding=(0, 3), bias=False)\n          (bn): BatchNorm2d(128, eps=0.001, momentum=0.1, affine=True, track_running_stats=True)\n          (relu): ReLU()\n        )\n        (2): BasicConv2d(\n          (conv): Conv2d(128, 128, kernel_size=(7, 1), stride=(1, 1), padding=(3, 0), bias=False)\n          (bn): BatchNorm2d(128, eps=0.001, momentum=0.1, affine=True, track_running_stats=True)\n          (relu): ReLU()\n        )\n      )\n      (conv2d): Conv2d(256, 896, kernel_size=(1, 1), stride=(1, 1))\n      (relu): ReLU()\n    )\n    (8): Block17(\n      (branch0): BasicConv2d(\n        (conv): Conv2d(896, 128, kernel_size=(1, 1), stride=(1, 1), bias=False)\n        (bn): BatchNorm2d(128, eps=0.001, momentum=0.1, affine=True, track_running_stats=True)\n        (relu): ReLU()\n      )\n      (branch1): Sequential(\n        (0): BasicConv2d(\n          (conv): Conv2d(896, 128, kernel_size=(1, 1), stride=(1, 1), bias=False)\n          (bn): BatchNorm2d(128, eps=0.001, momentum=0.1, affine=True, track_running_stats=True)\n          (relu): ReLU()\n        )\n        (1): BasicConv2d(\n          (conv): Conv2d(128, 128, kernel_size=(1, 7), stride=(1, 1), padding=(0, 3), bias=False)\n          (bn): BatchNorm2d(128, eps=0.001, momentum=0.1, affine=True, track_running_stats=True)\n          (relu): ReLU()\n        )\n        (2): BasicConv2d(\n          (conv): Conv2d(128, 128, kernel_size=(7, 1), stride=(1, 1), padding=(3, 0), bias=False)\n          (bn): BatchNorm2d(128, eps=0.001, momentum=0.1, affine=True, track_running_stats=True)\n          (relu): ReLU()\n        )\n      )\n      (conv2d): Conv2d(256, 896, kernel_size=(1, 1), stride=(1, 1))\n      (relu): ReLU()\n    )\n    (9): Block17(\n      (branch0): BasicConv2d(\n        (conv): Conv2d(896, 128, kernel_size=(1, 1), stride=(1, 1), bias=False)\n        (bn): BatchNorm2d(128, eps=0.001, momentum=0.1, affine=True, track_running_stats=True)\n        (relu): ReLU()\n      )\n      (branch1): Sequential(\n        (0): BasicConv2d(\n          (conv): Conv2d(896, 128, kernel_size=(1, 1), stride=(1, 1), bias=False)\n          (bn): BatchNorm2d(128, eps=0.001, momentum=0.1, affine=True, track_running_stats=True)\n          (relu): ReLU()\n        )\n        (1): BasicConv2d(\n          (conv): Conv2d(128, 128, kernel_size=(1, 7), stride=(1, 1), padding=(0, 3), bias=False)\n          (bn): BatchNorm2d(128, eps=0.001, momentum=0.1, affine=True, track_running_stats=True)\n          (relu): ReLU()\n        )\n        (2): BasicConv2d(\n          (conv): Conv2d(128, 128, kernel_size=(7, 1), stride=(1, 1), padding=(3, 0), bias=False)\n          (bn): BatchNorm2d(128, eps=0.001, momentum=0.1, affine=True, track_running_stats=True)\n          (relu): ReLU()\n        )\n      )\n      (conv2d): Conv2d(256, 896, kernel_size=(1, 1), stride=(1, 1))\n      (relu): ReLU()\n    )\n  )\n  (mixed_7a): Mixed_7a(\n    (branch0): Sequential(\n      (0): BasicConv2d(\n        (conv): Conv2d(896, 256, kernel_size=(1, 1), stride=(1, 1), bias=False)\n        (bn): BatchNorm2d(256, eps=0.001, momentum=0.1, affine=True, track_running_stats=True)\n        (relu): ReLU()\n      )\n      (1): BasicConv2d(\n        (conv): Conv2d(256, 384, kernel_size=(3, 3), stride=(2, 2), bias=False)\n        (bn): BatchNorm2d(384, eps=0.001, momentum=0.1, affine=True, track_running_stats=True)\n        (relu): ReLU()\n      )\n    )\n    (branch1): Sequential(\n      (0): BasicConv2d(\n        (conv): Conv2d(896, 256, kernel_size=(1, 1), stride=(1, 1), bias=False)\n        (bn): BatchNorm2d(256, eps=0.001, momentum=0.1, affine=True, track_running_stats=True)\n        (relu): ReLU()\n      )\n      (1): BasicConv2d(\n        (conv): Conv2d(256, 256, kernel_size=(3, 3), stride=(2, 2), bias=False)\n        (bn): BatchNorm2d(256, eps=0.001, momentum=0.1, affine=True, track_running_stats=True)\n        (relu): ReLU()\n      )\n    )\n    (branch2): Sequential(\n      (0): BasicConv2d(\n        (conv): Conv2d(896, 256, kernel_size=(1, 1), stride=(1, 1), bias=False)\n        (bn): BatchNorm2d(256, eps=0.001, momentum=0.1, affine=True, track_running_stats=True)\n        (relu): ReLU()\n      )\n      (1): BasicConv2d(\n        (conv): Conv2d(256, 256, kernel_size=(3, 3), stride=(1, 1), padding=(1, 1), bias=False)\n        (bn): BatchNorm2d(256, eps=0.001, momentum=0.1, affine=True, track_running_stats=True)\n        (relu): ReLU()\n      )\n      (2): BasicConv2d(\n        (conv): Conv2d(256, 256, kernel_size=(3, 3), stride=(2, 2), bias=False)\n        (bn): BatchNorm2d(256, eps=0.001, momentum=0.1, affine=True, track_running_stats=True)\n        (relu): ReLU()\n      )\n    )\n    (branch3): MaxPool2d(kernel_size=3, stride=2, padding=0, dilation=1, ceil_mode=False)\n  )\n  (repeat_3): Sequential(\n    (0): Block8(\n      (branch0): BasicConv2d(\n        (conv): Conv2d(1792, 192, kernel_size=(1, 1), stride=(1, 1), bias=False)\n        (bn): BatchNorm2d(192, eps=0.001, momentum=0.1, affine=True, track_running_stats=True)\n        (relu): ReLU()\n      )\n      (branch1): Sequential(\n        (0): BasicConv2d(\n          (conv): Conv2d(1792, 192, kernel_size=(1, 1), stride=(1, 1), bias=False)\n          (bn): BatchNorm2d(192, eps=0.001, momentum=0.1, affine=True, track_running_stats=True)\n          (relu): ReLU()\n        )\n        (1): BasicConv2d(\n          (conv): Conv2d(192, 192, kernel_size=(1, 3), stride=(1, 1), padding=(0, 1), bias=False)\n          (bn): BatchNorm2d(192, eps=0.001, momentum=0.1, affine=True, track_running_stats=True)\n          (relu): ReLU()\n        )\n        (2): BasicConv2d(\n          (conv): Conv2d(192, 192, kernel_size=(3, 1), stride=(1, 1), padding=(1, 0), bias=False)\n          (bn): BatchNorm2d(192, eps=0.001, momentum=0.1, affine=True, track_running_stats=True)\n          (relu): ReLU()\n        )\n      )\n      (conv2d): Conv2d(384, 1792, kernel_size=(1, 1), stride=(1, 1))\n      (relu): ReLU()\n    )\n    (1): Block8(\n      (branch0): BasicConv2d(\n        (conv): Conv2d(1792, 192, kernel_size=(1, 1), stride=(1, 1), bias=False)\n        (bn): BatchNorm2d(192, eps=0.001, momentum=0.1, affine=True, track_running_stats=True)\n        (relu): ReLU()\n      )\n      (branch1): Sequential(\n        (0): BasicConv2d(\n          (conv): Conv2d(1792, 192, kernel_size=(1, 1), stride=(1, 1), bias=False)\n          (bn): BatchNorm2d(192, eps=0.001, momentum=0.1, affine=True, track_running_stats=True)\n          (relu): ReLU()\n        )\n        (1): BasicConv2d(\n          (conv): Conv2d(192, 192, kernel_size=(1, 3), stride=(1, 1), padding=(0, 1), bias=False)\n          (bn): BatchNorm2d(192, eps=0.001, momentum=0.1, affine=True, track_running_stats=True)\n          (relu): ReLU()\n        )\n        (2): BasicConv2d(\n          (conv): Conv2d(192, 192, kernel_size=(3, 1), stride=(1, 1), padding=(1, 0), bias=False)\n          (bn): BatchNorm2d(192, eps=0.001, momentum=0.1, affine=True, track_running_stats=True)\n          (relu): ReLU()\n        )\n      )\n      (conv2d): Conv2d(384, 1792, kernel_size=(1, 1), stride=(1, 1))\n      (relu): ReLU()\n    )\n    (2): Block8(\n      (branch0): BasicConv2d(\n        (conv): Conv2d(1792, 192, kernel_size=(1, 1), stride=(1, 1), bias=False)\n        (bn): BatchNorm2d(192, eps=0.001, momentum=0.1, affine=True, track_running_stats=True)\n        (relu): ReLU()\n      )\n      (branch1): Sequential(\n        (0): BasicConv2d(\n          (conv): Conv2d(1792, 192, kernel_size=(1, 1), stride=(1, 1), bias=False)\n          (bn): BatchNorm2d(192, eps=0.001, momentum=0.1, affine=True, track_running_stats=True)\n          (relu): ReLU()\n        )\n        (1): BasicConv2d(\n          (conv): Conv2d(192, 192, kernel_size=(1, 3), stride=(1, 1), padding=(0, 1), bias=False)\n          (bn): BatchNorm2d(192, eps=0.001, momentum=0.1, affine=True, track_running_stats=True)\n          (relu): ReLU()\n        )\n        (2): BasicConv2d(\n          (conv): Conv2d(192, 192, kernel_size=(3, 1), stride=(1, 1), padding=(1, 0), bias=False)\n          (bn): BatchNorm2d(192, eps=0.001, momentum=0.1, affine=True, track_running_stats=True)\n          (relu): ReLU()\n        )\n      )\n      (conv2d): Conv2d(384, 1792, kernel_size=(1, 1), stride=(1, 1))\n      (relu): ReLU()\n    )\n    (3): Block8(\n      (branch0): BasicConv2d(\n        (conv): Conv2d(1792, 192, kernel_size=(1, 1), stride=(1, 1), bias=False)\n        (bn): BatchNorm2d(192, eps=0.001, momentum=0.1, affine=True, track_running_stats=True)\n        (relu): ReLU()\n      )\n      (branch1): Sequential(\n        (0): BasicConv2d(\n          (conv): Conv2d(1792, 192, kernel_size=(1, 1), stride=(1, 1), bias=False)\n          (bn): BatchNorm2d(192, eps=0.001, momentum=0.1, affine=True, track_running_stats=True)\n          (relu): ReLU()\n        )\n        (1): BasicConv2d(\n          (conv): Conv2d(192, 192, kernel_size=(1, 3), stride=(1, 1), padding=(0, 1), bias=False)\n          (bn): BatchNorm2d(192, eps=0.001, momentum=0.1, affine=True, track_running_stats=True)\n          (relu): ReLU()\n        )\n        (2): BasicConv2d(\n          (conv): Conv2d(192, 192, kernel_size=(3, 1), stride=(1, 1), padding=(1, 0), bias=False)\n          (bn): BatchNorm2d(192, eps=0.001, momentum=0.1, affine=True, track_running_stats=True)\n          (relu): ReLU()\n        )\n      )\n      (conv2d): Conv2d(384, 1792, kernel_size=(1, 1), stride=(1, 1))\n      (relu): ReLU()\n    )\n    (4): Block8(\n      (branch0): BasicConv2d(\n        (conv): Conv2d(1792, 192, kernel_size=(1, 1), stride=(1, 1), bias=False)\n        (bn): BatchNorm2d(192, eps=0.001, momentum=0.1, affine=True, track_running_stats=True)\n        (relu): ReLU()\n      )\n      (branch1): Sequential(\n        (0): BasicConv2d(\n          (conv): Conv2d(1792, 192, kernel_size=(1, 1), stride=(1, 1), bias=False)\n          (bn): BatchNorm2d(192, eps=0.001, momentum=0.1, affine=True, track_running_stats=True)\n          (relu): ReLU()\n        )\n        (1): BasicConv2d(\n          (conv): Conv2d(192, 192, kernel_size=(1, 3), stride=(1, 1), padding=(0, 1), bias=False)\n          (bn): BatchNorm2d(192, eps=0.001, momentum=0.1, affine=True, track_running_stats=True)\n          (relu): ReLU()\n        )\n        (2): BasicConv2d(\n          (conv): Conv2d(192, 192, kernel_size=(3, 1), stride=(1, 1), padding=(1, 0), bias=False)\n          (bn): BatchNorm2d(192, eps=0.001, momentum=0.1, affine=True, track_running_stats=True)\n          (relu): ReLU()\n        )\n      )\n      (conv2d): Conv2d(384, 1792, kernel_size=(1, 1), stride=(1, 1))\n      (relu): ReLU()\n    )\n  )\n  (block8): Block8(\n    (branch0): BasicConv2d(\n      (conv): Conv2d(1792, 192, kernel_size=(1, 1), stride=(1, 1), bias=False)\n      (bn): BatchNorm2d(192, eps=0.001, momentum=0.1, affine=True, track_running_stats=True)\n      (relu): ReLU()\n    )\n    (branch1): Sequential(\n      (0): BasicConv2d(\n        (conv): Conv2d(1792, 192, kernel_size=(1, 1), stride=(1, 1), bias=False)\n        (bn): BatchNorm2d(192, eps=0.001, momentum=0.1, affine=True, track_running_stats=True)\n        (relu): ReLU()\n      )\n      (1): BasicConv2d(\n        (conv): Conv2d(192, 192, kernel_size=(1, 3), stride=(1, 1), padding=(0, 1), bias=False)\n        (bn): BatchNorm2d(192, eps=0.001, momentum=0.1, affine=True, track_running_stats=True)\n        (relu): ReLU()\n      )\n      (2): BasicConv2d(\n        (conv): Conv2d(192, 192, kernel_size=(3, 1), stride=(1, 1), padding=(1, 0), bias=False)\n        (bn): BatchNorm2d(192, eps=0.001, momentum=0.1, affine=True, track_running_stats=True)\n        (relu): ReLU()\n      )\n    )\n    (conv2d): Conv2d(384, 1792, kernel_size=(1, 1), stride=(1, 1))\n  )\n  (avgpool_1a): AdaptiveAvgPool2d(output_size=1)\n  (dropout): Dropout(p=0.6, inplace=False)\n  (last_linear): Linear(in_features=1792, out_features=512, bias=False)\n  (last_bn): BatchNorm1d(512, eps=0.001, momentum=0.1, affine=True, track_running_stats=True)\n  (logits): Linear(in_features=512, out_features=8631, bias=True)\n)"},"metadata":{}}],"execution_count":19},{"cell_type":"code","source":"# Step 2: Initialize model\nmodel = InceptionResnetV1(pretrained='vggface2', classify=False)\nmodel.to(device)\n\n# Step 3: Setup trainer\ntrainer = FaceNetTrainer(model=model, device=device)\n\n# Step 4: Setup data\ntrain_transform, val_transform = get_data_transforms()\n\n# Use
…
